…
|||---- loading model state dict from /mnt/petrelfs/tangzecheng/local_ckpt/pythia-1b-hf-2048-fromsk-15b/version_1/checkpoints/last.ckpt ----|||
|||---- loading model state dict from /mnt/petrelfs/tangzecheng/local_ckpt/pythia-1b-hf-2048-fromsk-15b/version_1/checkpoints/last.ckpt ----|||
|||---- loading model state dict from /mnt/petrelfs/tangzecheng/local_ckpt/pythia-1b-hf-2048-fromsk-15b/version_1/checkpoints/last.ckpt ----|||
|||---- loading model state dict from /mnt/petrelfs/tangzecheng/local_ckpt/pythia-1b-hf-2048-fromsk-15b/version_1/checkpoints/last.ckpt ----|||
GPTNeoXForCausalLM(
  (gpt_neox): GPTNeoXModel(
    (embed_in): Embedding(50304, 2048)
    (emb_dropout): Dropout(p=0.0, inplace=False)
    (layers): ModuleList(
      (0-15): 16 x GPTNeoXLayer(
        (input_layernorm): LayerNorm((2048,), eps=1e-05, elementwise_affine=True)
        (post_attention_layernorm): LayerNorm((2048,), eps=1e-05, elementwise_affine=True)
        (post_attention_dropout): Dropout(p=0.0, inplace=False)
        (post_mlp_dropout): Dropout(p=0.0, inplace=False)
        (attention): GPTNeoXAttention(
          (rotary_emb): GPTNeoXRotaryEmbedding()
          (query_key_value): Linear(in_features=2048, out_features=6144, bias=True)
          (dense): Linear(in_features=2048, out_features=2048, bias=True)
          (attention_dropout): Dropout(p=0.0, inplace=False)
        )
        (mlp): GPTNeoXMLP(
          (dense_h_to_4h): Linear(in_features=2048, out_features=8192, bias=True)
          (dense_4h_to_h): Linear(in_features=8192, out_features=2048, bias=True)
          (act): GELUActivation()
        )
      )
    )
    (final_layer_norm): LayerNorm((2048,), eps=1e-05, elementwise_affine=True)
  )
  (embed_out): Linear(in_features=2048, out_features=50304, bias=False)
)
GPTNeoXForCausalLM(
  (gpt_neox): GPTNeoXModel(
    (embed_in): Embedding(50304, 2048)
    (emb_dropout): Dropout(p=0.0, inplace=False)
    (layers): ModuleList(
      (0-15): 16 x GPTNeoXLayer(
        (input_layernorm): LayerNorm((2048,), eps=1e-05, elementwise_affine=True)
        (post_attention_layernorm): LayerNorm((2048,), eps=1e-05, elementwise_affine=True)
        (post_attention_dropout): Dropout(p=0.0, inplace=False)
        (post_mlp_dropout): Dropout(p=0.0, inplace=False)
        (attention): GPTNeoXAttention(
          (rotary_emb): GPTNeoXRotaryEmbedding()
          (query_key_value): Linear(in_features=2048, out_features=6144, bias=True)
          (dense): Linear(in_features=2048, out_features=2048, bias=True)
          (attention_dropout): Dropout(p=0.0, inplace=False)
        )
        (mlp): GPTNeoXMLP(
          (dense_h_to_4h): Linear(in_features=2048, out_features=8192, bias=True)
          (dense_4h_to_h): Linear(in_features=8192, out_features=2048, bias=True)
          (act): GELUActivation()
        )
      )
    )
    (final_layer_norm): LayerNorm((2048,), eps=1e-05, elementwise_affine=True)
  )
  (embed_out): Linear(in_features=2048, out_features=50304, bias=False)
)
/mnt/petrelfs/tangzecheng/local_data/slimpajama-processed/processed_data_2048
/mnt/petrelfs/tangzecheng/local_data/slimpajama-processed/processed_data_2048
GPTNeoXForCausalLM(
  (gpt_neox): GPTNeoXModel(
    (embed_in): Embedding(50304, 2048)
    (emb_dropout): Dropout(p=0.0, inplace=False)
    (layers): ModuleList(
      (0-15): 16 x GPTNeoXLayer(
        (input_layernorm): LayerNorm((2048,), eps=1e-05, elementwise_affine=True)
        (post_attention_layernorm): LayerNorm((2048,), eps=1e-05, elementwise_affine=True)
        (post_attention_dropout): Dropout(p=0.0, inplace=False)
        (post_mlp_dropout): Dropout(p=0.0, inplace=False)
        (attention): GPTNeoXAttention(
          (rotary_emb): GPTNeoXRotaryEmbedding()
          (query_key_value): Linear(in_features=2048, out_features=6144, bias=True)
          (dense): Linear(in_features=2048, out_features=2048, bias=True)
          (attention_dropout): Dropout(p=0.0, inplace=False)
        )
        (mlp): GPTNeoXMLP(
          (dense_h_to_4h): Linear(in_features=2048, out_features=8192, bias=True)
          (dense_4h_to_h): Linear(in_features=8192, out_features=2048, bias=True)
          (act): GELUActivation()
        )
      )
    )
    (final_layer_norm): LayerNorm((2048,), eps=1e-05, elementwise_affine=True)
  )
  (embed_out): Linear(in_features=2048, out_features=50304, bias=False)
)
num of train samples: 2740579
/mnt/petrelfs/tangzecheng/local_data/slimpajama-processed/processed_data_2048
num of train samples: 2740579
/mnt/petrelfs/tangzecheng/local_data/slimpajama-processed/processed_data_2048
num of valid samples: 1000
|||---- global_batch_size(include grad accmulate): 288 ----|||
|||---- training steps per epoch: 9515 ----|||
|||---- total_training_steps: 95150 ----|||
|||---- using monitor:valid_lm_loss ----|||
|||---- utilize strategy deepspeed ----|||
GPTNeoXForCausalLM(
  (gpt_neox): GPTNeoXModel(
    (embed_in): Embedding(50304, 2048)
    (emb_dropout): Dropout(p=0.0, inplace=False)
    (layers): ModuleList(
      (0-15): 16 x GPTNeoXLayer(
        (input_layernorm): LayerNorm((2048,), eps=1e-05, elementwise_affine=True)
        (post_attention_layernorm): LayerNorm((2048,), eps=1e-05, elementwise_affine=True)
        (post_attention_dropout): Dropout(p=0.0, inplace=False)
        (post_mlp_dropout): Dropout(p=0.0, inplace=False)
        (attention): GPTNeoXAttention(
          (rotary_emb): GPTNeoXRotaryEmbedding()
          (query_key_value): Linear(in_features=2048, out_features=6144, bias=True)
          (dense): Linear(in_features=2048, out_features=2048, bias=True)
          (attention_dropout): Dropout(p=0.0, inplace=False)
        )
        (mlp): GPTNeoXMLP(
          (dense_h_to_4h): Linear(in_features=2048, out_features=8192, bias=True)
          (dense_4h_to_h): Linear(in_features=8192, out_features=2048, bias=True)
          (act): GELUActivation()
        )
      )
    )
    (final_layer_norm): LayerNorm((2048,), eps=1e-05, elementwise_affine=True)
  )
  (embed_out): Linear(in_features=2048, out_features=50304, bias=False)
)
num of valid samples: 1000
|||---- global_batch_size(include grad accmulate): 288 ----|||
|||---- training steps per epoch: 9515 ----|||
|||---- total_training_steps: 95150 ----|||
|||---- using monitor:valid_lm_loss ----|||
|||---- utilize strategy deepspeed ----|||
GPTNeoXForCausalLM(
  (gpt_neox): GPTNeoXModel(
    (embed_in): Embedding(50304, 2048)
    (emb_dropout): Dropout(p=0.0, inplace=False)
    (layers): ModuleList(
      (0-15): 16 x GPTNeoXLayer(
        (input_layernorm): LayerNorm((2048,), eps=1e-05, elementwise_affine=True)
        (post_attention_layernorm): LayerNorm((2048,), eps=1e-05, elementwise_affine=True)
        (post_attention_dropout): Dropout(p=0.0, inplace=False)
        (post_mlp_dropout): Dropout(p=0.0, inplace=False)
        (attention): GPTNeoXAttention(
          (rotary_emb): GPTNeoXRotaryEmbedding()
          (query_key_value): Linear(in_features=2048, out_features=6144, bias=True)
          (dense): Linear(in_features=2048, out_features=2048, bias=True)
          (attention_dropout): Dropout(p=0.0, inplace=False)
        )
        (mlp): GPTNeoXMLP(
          (dense_h_to_4h): Linear(in_features=2048, out_features=8192, bias=True)
          (dense_4h_to_h): Linear(in_features=8192, out_features=2048, bias=True)
          (act): GELUActivation()
        )
      )
    )
    (final_layer_norm): LayerNorm((2048,), eps=1e-05, elementwise_affine=True)
  )
  (embed_out): Linear(in_features=2048, out_features=50304, bias=False)
)
GPTNeoXForCausalLM(
  (gpt_neox): GPTNeoXModel(
    (embed_in): Embedding(50304, 2048)
    (emb_dropout): Dropout(p=0.0, inplace=False)
    (layers): ModuleList(
      (0-15): 16 x GPTNeoXLayer(
        (input_layernorm): LayerNorm((2048,), eps=1e-05, elementwise_affine=True)
        (post_attention_layernorm): LayerNorm((2048,), eps=1e-05, elementwise_affine=True)
        (post_attention_dropout): Dropout(p=0.0, inplace=False)
        (post_mlp_dropout): Dropout(p=0.0, inplace=False)
        (attention): GPTNeoXAttention(
          (rotary_emb): GPTNeoXRotaryEmbedding()
          (query_key_value): Linear(in_features=2048, out_features=6144, bias=True)
          (dense): Linear(in_features=2048, out_features=2048, bias=True)
          (attention_dropout): Dropout(p=0.0, inplace=False)
        )
        (mlp): GPTNeoXMLP(
          (dense_h_to_4h): Linear(in_features=2048, out_features=8192, bias=True)
          (dense_4h_to_h): Linear(in_features=8192, out_features=2048, bias=True)
          (act): GELUActivation()
        )
      )
    )
    (final_layer_norm): LayerNorm((2048,), eps=1e-05, elementwise_affine=True)
  )
  (embed_out): Linear(in_features=2048, out_features=50304, bias=False)
)
[2024-12-15 15:21:24,919] [INFO] [real_accelerator.py:219:get_accelerator] Setting ds_accelerator to cuda (auto detect)
/mnt/petrelfs/tangzecheng/local_data/slimpajama-processed/processed_data_2048
[2024-12-15 15:21:24,968] [INFO] [real_accelerator.py:219:get_accelerator] Setting ds_accelerator to cuda (auto detect)
GPTNeoXForCausalLM(
  (gpt_neox): GPTNeoXModel(
    (embed_in): Embedding(50304, 2048)
    (emb_dropout): Dropout(p=0.0, inplace=False)
    (layers): ModuleList(
      (0-15): 16 x GPTNeoXLayer(
        (input_layernorm): LayerNorm((2048,), eps=1e-05, elementwise_affine=True)
        (post_attention_layernorm): LayerNorm((2048,), eps=1e-05, elementwise_affine=True)
        (post_attention_dropout): Dropout(p=0.0, inplace=False)
        (post_mlp_dropout): Dropout(p=0.0, inplace=False)
        (attention): GPTNeoXAttention(
          (rotary_emb): GPTNeoXRotaryEmbedding()
          (query_key_value): Linear(in_features=2048, out_features=6144, bias=True)
          (dense): Linear(in_features=2048, out_features=2048, bias=True)
          (attention_dropout): Dropout(p=0.0, inplace=False)
        )
        (mlp): GPTNeoXMLP(
          (dense_h_to_4h): Linear(in_features=2048, out_features=8192, bias=True)
          (dense_4h_to_h): Linear(in_features=8192, out_features=2048, bias=True)
          (act): GELUActivation()
        )
      )
    )
    (final_layer_norm): LayerNorm((2048,), eps=1e-05, elementwise_affine=True)
  )
  (embed_out): Linear(in_features=2048, out_features=50304, bias=False)
)
num of train samples: 2740579
/mnt/petrelfs/tangzecheng/local_data/slimpajama-processed/processed_data_2048
/mnt/petrelfs/tangzecheng/local_data/slimpajama-processed/processed_data_2048
/mnt/petrelfs/tangzecheng/local_data/slimpajama-processed/processed_data_2048
/mnt/petrelfs/tangzecheng/local_data/slimpajama-processed/processed_data_2048
GPTNeoXForCausalLM(
  (gpt_neox): GPTNeoXModel(
    (embed_in): Embedding(50304, 2048)
    (emb_dropout): Dropout(p=0.0, inplace=False)
    (layers): ModuleList(
      (0-15): 16 x GPTNeoXLayer(
        (input_layernorm): LayerNorm((2048,), eps=1e-05, elementwise_affine=True)
        (post_attention_layernorm): LayerNorm((2048,), eps=1e-05, elementwise_affine=True)
        (post_attention_dropout): Dropout(p=0.0, inplace=False)
        (post_mlp_dropout): Dropout(p=0.0, inplace=False)
        (attention): GPTNeoXAttention(
          (rotary_emb): GPTNeoXRotaryEmbedding()
          (query_key_value): Linear(in_features=2048, out_features=6144, bias=True)
          (dense): Linear(in_features=2048, out_features=2048, bias=True)
          (attention_dropout): Dropout(p=0.0, inplace=False)
        )
        (mlp): GPTNeoXMLP(
          (dense_h_to_4h): Linear(in_features=2048, out_features=8192, bias=True)
          (dense_4h_to_h): Linear(in_features=8192, out_features=2048, bias=True)
          (act): GELUActivation()
        )
      )
    )
    (final_layer_norm): LayerNorm((2048,), eps=1e-05, elementwise_affine=True)
  )
  (embed_out): Linear(in_features=2048, out_features=50304, bias=False)
)
num of valid samples: 1000
|||---- global_batch_size(include grad accmulate): 288 ----|||
|||---- training steps per epoch: 9515 ----|||
|||---- total_training_steps: 95150 ----|||
|||---- using monitor:valid_lm_loss ----|||
|||---- utilize strategy deepspeed ----|||
/mnt/petrelfs/tangzecheng/local_data/slimpajama-processed/processed_data_2048
[2024-12-15 15:21:25,654] [INFO] [real_accelerator.py:219:get_accelerator] Setting ds_accelerator to cuda (auto detect)
…
